…
│                     │ 32)               │            │                   │
├─────────────────────┼───────────────────┼────────────┼───────────────────┤
│ batch_normalizatio… │ (None, 11, 11,    │        128 │ conv2d_17[0][0]   │
│ (BatchNormalizatio… │ 32)               │            │                   │
├─────────────────────┼───────────────────┼────────────┼───────────────────┤
│ batch_normalizatio… │ (None, 11, 11,    │        128 │ conv2d_21[0][0]   │
│ (BatchNormalizatio… │ 32)               │            │                   │
├─────────────────────┼───────────────────┼────────────┼───────────────────┤
│ input_layer_5       │ (None, 23)        │          0 │ -                 │
│ (InputLayer)        │                   │            │                   │
├─────────────────────┼───────────────────┼────────────┼───────────────────┤
│ activation_17       │ (None, 11, 11,    │          0 │ batch_normalizat… │
│ (Activation)        │ 32)               │            │                   │
├─────────────────────┼───────────────────┼────────────┼───────────────────┤
│ activation_21       │ (None, 11, 11,    │          0 │ batch_normalizat… │
│ (Activation)        │ 32)               │            │                   │
├─────────────────────┼───────────────────┼────────────┼───────────────────┤
│ dense_33 (Dense)    │ (None, 1024)      │     24,576 │ input_layer_5[0]… │
├─────────────────────┼───────────────────┼────────────┼───────────────────┤
│ max_pooling2d_9     │ (None, 5, 5, 32)  │          0 │ activation_17[0]… │
│ (MaxPooling2D)      │                   │            │                   │
├─────────────────────┼───────────────────┼────────────┼───────────────────┤
│ average_pooling2d_9 │ (None, 5, 5, 32)  │          0 │ activation_21[0]… │
│ (AveragePooling2D)  │                   │            │                   │
├─────────────────────┼───────────────────┼────────────┼───────────────────┤
│ batch_normalizatio… │ (None, 1024)      │      4,096 │ dense_33[0][0]    │
│ (BatchNormalizatio… │                   │            │                   │
├─────────────────────┼───────────────────┼────────────┼───────────────────┤
│ dropout_56          │ (None, 5, 5, 32)  │          0 │ max_pooling2d_9[… │
│ (Dropout)           │                   │            │                   │
├─────────────────────┼───────────────────┼────────────┼───────────────────┤
│ dropout_60          │ (None, 5, 5, 32)  │          0 │ average_pooling2… │
│ (Dropout)           │                   │            │                   │
├─────────────────────┼───────────────────┼────────────┼───────────────────┤
│ dropout_48          │ (None, 1024)      │          0 │ batch_normalizat… │
│ (Dropout)           │                   │            │                   │
├─────────────────────┼───────────────────┼────────────┼───────────────────┤
│ conv2d_18 (Conv2D)  │ (None, 5, 5, 64)  │     18,496 │ dropout_56[0][0]  │
├─────────────────────┼───────────────────┼────────────┼───────────────────┤
│ conv2d_22 (Conv2D)  │ (None, 5, 5, 64)  │     51,264 │ dropout_60[0][0]  │
├─────────────────────┼───────────────────┼────────────┼───────────────────┤
│ dense_34 (Dense)    │ (None, 512)       │    524,800 │ dropout_48[0][0]  │
├─────────────────────┼───────────────────┼────────────┼───────────────────┤
│ batch_normalizatio… │ (None, 5, 5, 64)  │        256 │ conv2d_18[0][0]   │
│ (BatchNormalizatio… │                   │            │                   │
├─────────────────────┼───────────────────┼────────────┼───────────────────┤
│ batch_normalizatio… │ (None, 5, 5, 64)  │        256 │ conv2d_22[0][0]   │
│ (BatchNormalizatio… │                   │            │                   │
├─────────────────────┼───────────────────┼────────────┼───────────────────┤
│ batch_normalizatio… │ (None, 512)       │      2,048 │ dense_34[0][0]    │
│ (BatchNormalizatio… │                   │            │                   │
├─────────────────────┼───────────────────┼────────────┼───────────────────┤
│ activation_18       │ (None, 5, 5, 64)  │          0 │ batch_normalizat… │
│ (Activation)        │                   │            │                   │
├─────────────────────┼───────────────────┼────────────┼───────────────────┤
│ activation_22       │ (None, 5, 5, 64)  │          0 │ batch_normalizat… │
│ (Activation)        │                   │            │                   │
├─────────────────────┼───────────────────┼────────────┼───────────────────┤
│ dropout_49          │ (None, 512)       │          0 │ batch_normalizat… │
│ (Dropout)           │                   │            │                   │
├─────────────────────┼───────────────────┼────────────┼───────────────────┤
│ max_pooling2d_10    │ (None, 2, 2, 64)  │          0 │ activation_18[0]… │
│ (MaxPooling2D)      │                   │            │                   │
├─────────────────────┼───────────────────┼────────────┼───────────────────┤
│ average_pooling2d_… │ (None, 2, 2, 64)  │          0 │ activation_22[0]… │
│ (AveragePooling2D)  │                   │            │                   │
├─────────────────────┼───────────────────┼────────────┼───────────────────┤
│ dense_35 (Dense)    │ (None, 256)       │    131,328 │ dropout_49[0][0]  │
├─────────────────────┼───────────────────┼────────────┼───────────────────┤
│ dropout_57          │ (None, 2, 2, 64)  │          0 │ max_pooling2d_10… │
│ (Dropout)           │                   │            │                   │
├─────────────────────┼───────────────────┼────────────┼───────────────────┤
│ dropout_61          │ (None, 2, 2, 64)  │          0 │ average_pooling2… │
│ (Dropout)           │                   │            │                   │
├─────────────────────┼───────────────────┼────────────┼───────────────────┤
│ batch_normalizatio… │ (None, 256)       │      1,024 │ dense_35[0][0]    │
│ (BatchNormalizatio… │                   │            │                   │
├─────────────────────┼───────────────────┼────────────┼───────────────────┤
│ conv2d_19 (Conv2D)  │ (None, 2, 2, 64)  │     36,928 │ dropout_57[0][0]  │
├─────────────────────┼───────────────────┼────────────┼───────────────────┤
│ conv2d_23 (Conv2D)  │ (None, 2, 2, 64)  │    102,464 │ dropout_61[0][0]  │
├─────────────────────┼───────────────────┼────────────┼───────────────────┤
│ dropout_50          │ (None, 256)       │          0 │ batch_normalizat… │
│ (Dropout)           │                   │            │                   │
├─────────────────────┼───────────────────┼────────────┼───────────────────┤
│ batch_normalizatio… │ (None, 2, 2, 64)  │        256 │ conv2d_19[0][0]   │
│ (BatchNormalizatio… │                   │            │                   │
├─────────────────────┼───────────────────┼────────────┼───────────────────┤
│ batch_normalizatio… │ (None, 2, 2, 64)  │        256 │ conv2d_23[0][0]   │
│ (BatchNormalizatio… │                   │            │                   │
├─────────────────────┼───────────────────┼────────────┼───────────────────┤
│ dense_36 (Dense)    │ (None, 128)       │     32,896 │ dropout_50[0][0]  │
├─────────────────────┼───────────────────┼────────────┼───────────────────┤
│ activation_19       │ (None, 2, 2, 64)  │          0 │ batch_normalizat… │
│ (Activation)        │                   │            │                   │
├─────────────────────┼───────────────────┼────────────┼───────────────────┤
│ activation_23       │ (None, 2, 2, 64)  │          0 │ batch_normalizat… │
│ (Activation)        │                   │            │                   │
├─────────────────────┼───────────────────┼────────────┼───────────────────┤
│ batch_normalizatio… │ (None, 128)       │        512 │ dense_36[0][0]    │
│ (BatchNormalizatio… │                   │            │                   │
├─────────────────────┼───────────────────┼────────────┼───────────────────┤
│ max_pooling2d_11    │ (None, 1, 1, 64)  │          0 │ activation_19[0]… │
│ (MaxPooling2D)      │                   │            │                   │
├─────────────────────┼───────────────────┼────────────┼───────────────────┤
│ average_pooling2d_… │ (None, 1, 1, 64)  │          0 │ activation_23[0]… │
│ (AveragePooling2D)  │                   │            │                   │
├─────────────────────┼───────────────────┼────────────┼───────────────────┤
│ dropout_51          │ (None, 128)       │          0 │ batch_normalizat… │
│ (Dropout)           │                   │            │                   │
├─────────────────────┼───────────────────┼────────────┼───────────────────┤
│ dropout_58          │ (None, 1, 1, 64)  │          0 │ max_pooling2d_11… │
│ (Dropout)           │                   │            │                   │
├─────────────────────┼───────────────────┼────────────┼───────────────────┤
│ dropout_62          │ (None, 1, 1, 64)  │          0 │ average_pooling2… │
│ (Dropout)           │                   │            │                   │
├─────────────────────┼───────────────────┼────────────┼───────────────────┤
│ dense_37 (Dense)    │ (None, 64)        │      8,256 │ dropout_51[0][0]  │
├─────────────────────┼───────────────────┼────────────┼───────────────────┤
│ concatenate_3       │ (None, 2, 1, 64)  │          0 │ dropout_58[0][0], │
│ (Concatenate)       │                   │            │ dropout_62[0][0]  │
├─────────────────────┼───────────────────┼────────────┼───────────────────┤
│ batch_normalizatio… │ (None, 64)        │        256 │ dense_37[0][0]    │
│ (BatchNormalizatio… │                   │            │                   │
├─────────────────────┼───────────────────┼────────────┼───────────────────┤
│ flatten_2 (Flatten) │ (None, 128)       │          0 │ concatenate_3[0]… │
├─────────────────────┼───────────────────┼────────────┼───────────────────┤
│ dropout_52          │ (None, 64)        │          0 │ batch_normalizat… │
│ (Dropout)           │                   │            │                   │
├─────────────────────┼───────────────────┼────────────┼───────────────────┤
│ dropout_63          │ (None, 128)       │          0 │ flatten_2[0][0]   │
│ (Dropout)           │                   │            │                   │
├─────────────────────┼───────────────────┼────────────┼───────────────────┤
│ dense_38 (Dense)    │ (None, 32)        │      2,080 │ dropout_52[0][0]  │
├─────────────────────┼───────────────────┼────────────┼───────────────────┤
│ dense_41 (Dense)    │ (None, 128)       │     16,512 │ dropout_63[0][0]  │
├─────────────────────┼───────────────────┼────────────┼───────────────────┤
│ batch_normalizatio… │ (None, 32)        │        128 │ dense_38[0][0]    │
│ (BatchNormalizatio… │                   │            │                   │
├─────────────────────┼───────────────────┼────────────┼───────────────────┤
│ dropout_64          │ (None, 128)       │          0 │ dense_41[0][0]    │
│ (Dropout)           │                   │            │                   │
├─────────────────────┼───────────────────┼────────────┼───────────────────┤
│ dropout_53          │ (None, 32)        │          0 │ batch_normalizat… │
│ (Dropout)           │                   │            │                   │
├─────────────────────┼───────────────────┼────────────┼───────────────────┤
│ dense_42 (Dense)    │ (None, 64)        │      8,256 │ dropout_64[0][0]  │
├─────────────────────┼───────────────────┼────────────┼───────────────────┤
│ dense_39 (Dense)    │ (None, 16)        │        528 │ dropout_53[0][0]  │
├─────────────────────┼───────────────────┼────────────┼───────────────────┤
│ dropout_65          │ (None, 64)        │          0 │ dense_42[0][0]    │
│ (Dropout)           │                   │            │                   │
├─────────────────────┼───────────────────┼────────────┼───────────────────┤
│ batch_normalizatio… │ (None, 16)        │         64 │ dense_39[0][0]    │
│ (BatchNormalizatio… │                   │            │                   │
├─────────────────────┼───────────────────┼────────────┼───────────────────┤
│ dense_43 (Dense)    │ (None, 32)        │      2,080 │ dropout_65[0][0]  │
├─────────────────────┼───────────────────┼────────────┼───────────────────┤
│ dropout_54          │ (None, 16)        │          0 │ batch_normalizat… │
│ (Dropout)           │                   │            │                   │
├─────────────────────┼───────────────────┼────────────┼───────────────────┤
│ dropout_66          │ (None, 32)        │          0 │ dense_43[0][0]    │
│ (Dropout)           │                   │            │                   │
├─────────────────────┼───────────────────┼────────────┼───────────────────┤
│ concatenate_4       │ (None, 48)        │          0 │ dropout_54[0][0], │
│ (Concatenate)       │                   │            │ dropout_66[0][0]  │
├─────────────────────┼───────────────────┼────────────┼───────────────────┤
│ dense_44 (Dense)    │ (None, 128)       │      6,272 │ concatenate_4[0]… │
├─────────────────────┼───────────────────┼────────────┼───────────────────┤
│ batch_normalizatio… │ (None, 128)       │        512 │ dense_44[0][0]    │
│ (BatchNormalizatio… │                   │            │                   │
├─────────────────────┼───────────────────┼────────────┼───────────────────┤
│ dropout_67          │ (None, 128)       │          0 │ batch_normalizat… │
│ (Dropout)           │                   │            │                   │
├─────────────────────┼───────────────────┼────────────┼───────────────────┤
│ dense_45 (Dense)    │ (None, 64)        │      8,256 │ dropout_67[0][0]  │
├─────────────────────┼───────────────────┼────────────┼───────────────────┤
│ batch_normalizatio… │ (None, 64)        │        256 │ dense_45[0][0]    │
│ (BatchNormalizatio… │                   │            │                   │
├─────────────────────┼───────────────────┼────────────┼───────────────────┤
│ dropout_68          │ (None, 64)        │          0 │ batch_normalizat… │
│ (Dropout)           │                   │            │                   │
├─────────────────────┼───────────────────┼────────────┼───────────────────┤
│ dense_46 (Dense)    │ (None, 32)        │      2,080 │ dropout_68[0][0]  │
├─────────────────────┼───────────────────┼────────────┼───────────────────┤
│ batch_normalizatio… │ (None, 32)        │        128 │ dense_46[0][0]    │
│ (BatchNormalizatio… │                   │            │                   │
├─────────────────────┼───────────────────┼────────────┼───────────────────┤
│ dropout_69          │ (None, 32)        │          0 │ batch_normalizat… │
│ (Dropout)           │                   │            │                   │
├─────────────────────┼───────────────────┼────────────┼───────────────────┤
│ dense_47 (Dense)    │ (None, 1)         │         33 │ dropout_69[0][0]  │
└─────────────────────┴───────────────────┴────────────┴───────────────────┘
 Total params: 1,006,673 (3.84 MB)
 Trainable params: 1,001,457 (3.82 MB)
 Non-trainable params: 5,216 (20.38 KB)

